…
['./main.py', '1', '2', 'gnerv7', '6', '8']
Hello World From Process 6, the World Size is 8
Downloaded the graph dataset
['./main.py', '0', '2', 'gnerv7', '2', '8']
Hello World From Process 2, the World Size is 8
Downloaded the graph dataset
['./main.py', '0', '2', 'gnerv7', '1', '8']
Hello World From Process 1, the World Size is 8
Downloaded the graph dataset
['./main.py', '0', '2', 'gnerv7', '3', '8']
Hello World From Process 3, the World Size is 8
Downloaded the graph dataset
StochasticGraphSage(
  (convs): ModuleList(
    (0): SAGEConv(
      (feat_drop): Dropout(p=0.0, inplace=False)
      (fc_neigh): Linear(in_features=500, out_features=100, bias=False)
      (fc_self): Linear(in_features=500, out_features=100, bias=True)
    )
    (1-30): 30 x SAGEConv(
      (feat_drop): Dropout(p=0.0, inplace=False)
      (fc_neigh): Linear(in_features=100, out_features=100, bias=False)
      (fc_self): Linear(in_features=100, out_features=100, bias=True)
    )
    (31): SAGEConv(
      (feat_drop): Dropout(p=0.0, inplace=False)
      (fc_neigh): Linear(in_features=100, out_features=7, bias=False)
      (fc_self): Linear(in_features=100, out_features=7, bias=True)
    )
  )
)
StochasticGraphSage(
  (convs): ModuleList(
    (0): SAGEConv(
      (feat_drop): Dropout(p=0.0, inplace=False)
      (fc_neigh): Linear(in_features=500, out_features=100, bias=False)
      (fc_self): Linear(in_features=500, out_features=100, bias=True)
    )
    (1-30): 30 x SAGEConv(
      (feat_drop): Dropout(p=0.0, inplace=False)
      (fc_neigh): Linear(in_features=100, out_features=100, bias=False)
      (fc_self): Linear(in_features=100, out_features=100, bias=True)
    )
    (31): SAGEConv(
      (feat_drop): Dropout(p=0.0, inplace=False)
      (fc_neigh): Linear(in_features=100, out_features=7, bias=False)
      (fc_self): Linear(in_features=100, out_features=7, bias=True)
    )
  )
)
StochasticGraphSage(
  (convs): ModuleList(
    (0): SAGEConv(
      (feat_drop): Dropout(p=0.0, inplace=False)
      (fc_neigh): Linear(in_features=500, out_features=100, bias=False)
      (fc_self): Linear(in_features=500, out_features=100, bias=True)
    )
    (1-30): 30 x SAGEConv(
      (feat_drop): Dropout(p=0.0, inplace=False)
      (fc_neigh): Linear(in_features=100, out_features=100, bias=False)
      (fc_self): Linear(in_features=100, out_features=100, bias=True)
    )
    (31): SAGEConv(
      (feat_drop): Dropout(p=0.0, inplace=False)
      (fc_neigh): Linear(in_features=100, out_features=7, bias=False)
      (fc_self): Linear(in_features=100, out_features=7, bias=True)
    )
  )
)
StochasticGraphSage(
  (convs): ModuleList(
    (0): SAGEConv(
      (feat_drop): Dropout(p=0.0, inplace=False)
      (fc_neigh): Linear(in_features=500, out_features=100, bias=False)
      (fc_self): Linear(in_features=500, out_features=100, bias=True)
    )
    (1-30): 30 x SAGEConv(
      (feat_drop): Dropout(p=0.0, inplace=False)
      (fc_neigh): Linear(in_features=100, out_features=100, bias=False)
      (fc_self): Linear(in_features=100, out_features=100, bias=True)
    )
    (31): SAGEConv(
      (feat_drop): Dropout(p=0.0, inplace=False)
      (fc_neigh): Linear(in_features=100, out_features=7, bias=False)
      (fc_self): Linear(in_features=100, out_features=7, bias=True)
    )
  )
)
StochasticGraphSage(
  (convs): ModuleList(
    (0): SAGEConv(
      (feat_drop): Dropout(p=0.0, inplace=False)
      (fc_neigh): Linear(in_features=500, out_features=100, bias=False)
      (fc_self): Linear(in_features=500, out_features=100, bias=True)
    )
    (1-30): 30 x SAGEConv(
      (feat_drop): Dropout(p=0.0, inplace=False)
      (fc_neigh): Linear(in_features=100, out_features=100, bias=False)
      (fc_self): Linear(in_features=100, out_features=100, bias=True)
    )
    (31): SAGEConv(
      (feat_drop): Dropout(p=0.0, inplace=False)
      (fc_neigh): Linear(in_features=100, out_features=7, bias=False)
      (fc_self): Linear(in_features=100, out_features=7, bias=True)
    )
  )
)
StochasticGraphSage(
  (convs): ModuleList(
    (0): SAGEConv(
      (feat_drop): Dropout(p=0.0, inplace=False)
      (fc_neigh): Linear(in_features=500, out_features=100, bias=False)
      (fc_self): Linear(in_features=500, out_features=100, bias=True)
    )
    (1-30): 30 x SAGEConv(
      (feat_drop): Dropout(p=0.0, inplace=False)
      (fc_neigh): Linear(in_features=100, out_features=100, bias=False)
      (fc_self): Linear(in_features=100, out_features=100, bias=True)
    )
    (31): SAGEConv(
      (feat_drop): Dropout(p=0.0, inplace=False)
      (fc_neigh): Linear(in_features=100, out_features=7, bias=False)
      (fc_self): Linear(in_features=100, out_features=7, bias=True)
    )
  )
)
StochasticGraphSage(
  (convs): ModuleList(
    (0): SAGEConv(
      (feat_drop): Dropout(p=0.0, inplace=False)
      (fc_neigh): Linear(in_features=500, out_features=100, bias=False)
      (fc_self): Linear(in_features=500, out_features=100, bias=True)
    )
    (1-30): 30 x SAGEConv(
      (feat_drop): Dropout(p=0.0, inplace=False)
      (fc_neigh): Linear(in_features=100, out_features=100, bias=False)
      (fc_self): Linear(in_features=100, out_features=100, bias=True)
    )
    (31): SAGEConv(
      (feat_drop): Dropout(p=0.0, inplace=False)
      (fc_neigh): Linear(in_features=100, out_features=7, bias=False)
      (fc_self): Linear(in_features=100, out_features=7, bias=True)
    )
  )
)
StochasticGraphSage(
  (convs): ModuleList(
    (0): SAGEConv(
      (feat_drop): Dropout(p=0.0, inplace=False)
      (fc_neigh): Linear(in_features=500, out_features=100, bias=False)
      (fc_self): Linear(in_features=500, out_features=100, bias=True)
    )
    (1-30): 30 x SAGEConv(
      (feat_drop): Dropout(p=0.0, inplace=False)
      (fc_neigh): Linear(in_features=100, out_features=100, bias=False)
      (fc_self): Linear(in_features=100, out_features=100, bias=True)
    )
    (31): SAGEConv(
      (feat_drop): Dropout(p=0.0, inplace=False)
      (fc_neigh): Linear(in_features=100, out_features=7, bias=False)
      (fc_self): Linear(in_features=100, out_features=7, bias=True)
    )
  )
)
Start Distributed GNN Training
Start Distributed GNN Training
Start Distributed GNN Training
Start Distributed GNN Training
Start Distributed GNN Training
Start Distributed GNN Training
Start Distributed GNN Training
Start Distributed GNN Training
	Rank 0, True Batch Size 256, Iteration 0, Loss 20124302.0000
	Rank 0, True Batch Size 256, Iteration 1, Loss 3290204.7500
…
