…
['./main.py', '0', '2', 'gnerv2', '1', '8']
Hello World From Process 1, the World Size is 8
Done loading data from cached files.
Downloaded the graph dataset
['./main.py', '1', '2', 'gnerv2', '4', '8']
Hello World From Process 4, the World Size is 8
Done loading data from cached files.
Downloaded the graph dataset
['./main.py', '1', '2', 'gnerv2', '5', '8']
Hello World From Process 5, the World Size is 8
Done loading data from cached files.
Downloaded the graph dataset
StochasticGraphSage(
  (convs): ModuleList(
    (0): SAGEConv(
      (feat_drop): Dropout(p=0.0, inplace=False)
      (fc_neigh): Linear(in_features=2089, out_features=1000, bias=False)
      (fc_self): Linear(in_features=2089, out_features=1000, bias=True)
    )
    (1-30): 30 x SAGEConv(
      (feat_drop): Dropout(p=0.0, inplace=False)
      (fc_neigh): Linear(in_features=1000, out_features=1000, bias=False)
      (fc_self): Linear(in_features=1000, out_features=1000, bias=True)
    )
    (31): SAGEConv(
      (feat_drop): Dropout(p=0.0, inplace=False)
      (fc_neigh): Linear(in_features=1000, out_features=5, bias=False)
      (fc_self): Linear(in_features=1000, out_features=5, bias=True)
    )
  )
)
StochasticGraphSage(
  (convs): ModuleList(
    (0): SAGEConv(
      (feat_drop): Dropout(p=0.0, inplace=False)
      (fc_neigh): Linear(in_features=2089, out_features=1000, bias=False)
      (fc_self): Linear(in_features=2089, out_features=1000, bias=True)
    )
    (1-30): 30 x SAGEConv(
      (feat_drop): Dropout(p=0.0, inplace=False)
      (fc_neigh): Linear(in_features=1000, out_features=1000, bias=False)
      (fc_self): Linear(in_features=1000, out_features=1000, bias=True)
    )
    (31): SAGEConv(
      (feat_drop): Dropout(p=0.0, inplace=False)
      (fc_neigh): Linear(in_features=1000, out_features=5, bias=False)
      (fc_self): Linear(in_features=1000, out_features=5, bias=True)
    )
  )
)
StochasticGraphSage(
  (convs): ModuleList(
    (0): SAGEConv(
      (feat_drop): Dropout(p=0.0, inplace=False)
      (fc_neigh): Linear(in_features=2089, out_features=1000, bias=False)
      (fc_self): Linear(in_features=2089, out_features=1000, bias=True)
    )
    (1-30): 30 x SAGEConv(
      (feat_drop): Dropout(p=0.0, inplace=False)
      (fc_neigh): Linear(in_features=1000, out_features=1000, bias=False)
      (fc_self): Linear(in_features=1000, out_features=1000, bias=True)
    )
    (31): SAGEConv(
      (feat_drop): Dropout(p=0.0, inplace=False)
      (fc_neigh): Linear(in_features=1000, out_features=5, bias=False)
      (fc_self): Linear(in_features=1000, out_features=5, bias=True)
    )
  )
)
StochasticGraphSage(
  (convs): ModuleList(
    (0): SAGEConv(
      (feat_drop): Dropout(p=0.0, inplace=False)
      (fc_neigh): Linear(in_features=2089, out_features=1000, bias=False)
      (fc_self): Linear(in_features=2089, out_features=1000, bias=True)
    )
    (1-30): 30 x SAGEConv(
      (feat_drop): Dropout(p=0.0, inplace=False)
      (fc_neigh): Linear(in_features=1000, out_features=1000, bias=False)
      (fc_self): Linear(in_features=1000, out_features=1000, bias=True)
    )
    (31): SAGEConv(
      (feat_drop): Dropout(p=0.0, inplace=False)
      (fc_neigh): Linear(in_features=1000, out_features=5, bias=False)
      (fc_self): Linear(in_features=1000, out_features=5, bias=True)
    )
  )
)
StochasticGraphSage(
  (convs): ModuleList(
    (0): SAGEConv(
      (feat_drop): Dropout(p=0.0, inplace=False)
      (fc_neigh): Linear(in_features=2089, out_features=1000, bias=False)
      (fc_self): Linear(in_features=2089, out_features=1000, bias=True)
    )
    (1-30): 30 x SAGEConv(
      (feat_drop): Dropout(p=0.0, inplace=False)
      (fc_neigh): Linear(in_features=1000, out_features=1000, bias=False)
      (fc_self): Linear(in_features=1000, out_features=1000, bias=True)
    )
    (31): SAGEConv(
      (feat_drop): Dropout(p=0.0, inplace=False)
      (fc_neigh): Linear(in_features=1000, out_features=5, bias=False)
      (fc_self): Linear(in_features=1000, out_features=5, bias=True)
    )
  )
)
StochasticGraphSage(
  (convs): ModuleList(
    (0): SAGEConv(
      (feat_drop): Dropout(p=0.0, inplace=False)
      (fc_neigh): Linear(in_features=2089, out_features=1000, bias=False)
      (fc_self): Linear(in_features=2089, out_features=1000, bias=True)
    )
    (1-30): 30 x SAGEConv(
      (feat_drop): Dropout(p=0.0, inplace=False)
      (fc_neigh): Linear(in_features=1000, out_features=1000, bias=False)
      (fc_self): Linear(in_features=1000, out_features=1000, bias=True)
    )
    (31): SAGEConv(
      (feat_drop): Dropout(p=0.0, inplace=False)
      (fc_neigh): Linear(in_features=1000, out_features=5, bias=False)
      (fc_self): Linear(in_features=1000, out_features=5, bias=True)
    )
  )
)
StochasticGraphSage(
  (convs): ModuleList(
    (0): SAGEConv(
      (feat_drop): Dropout(p=0.0, inplace=False)
      (fc_neigh): Linear(in_features=2089, out_features=1000, bias=False)
      (fc_self): Linear(in_features=2089, out_features=1000, bias=True)
    )
    (1-30): 30 x SAGEConv(
      (feat_drop): Dropout(p=0.0, inplace=False)
      (fc_neigh): Linear(in_features=1000, out_features=1000, bias=False)
      (fc_self): Linear(in_features=1000, out_features=1000, bias=True)
    )
    (31): SAGEConv(
      (feat_drop): Dropout(p=0.0, inplace=False)
      (fc_neigh): Linear(in_features=1000, out_features=5, bias=False)
      (fc_self): Linear(in_features=1000, out_features=5, bias=True)
    )
  )
)
StochasticGraphSage(
  (convs): ModuleList(
    (0): SAGEConv(
      (feat_drop): Dropout(p=0.0, inplace=False)
      (fc_neigh): Linear(in_features=2089, out_features=1000, bias=False)
      (fc_self): Linear(in_features=2089, out_features=1000, bias=True)
    )
    (1-30): 30 x SAGEConv(
      (feat_drop): Dropout(p=0.0, inplace=False)
      (fc_neigh): Linear(in_features=1000, out_features=1000, bias=False)
      (fc_self): Linear(in_features=1000, out_features=1000, bias=True)
    )
    (31): SAGEConv(
      (feat_drop): Dropout(p=0.0, inplace=False)
      (fc_neigh): Linear(in_features=1000, out_features=5, bias=False)
      (fc_self): Linear(in_features=1000, out_features=5, bias=True)
    )
  )
)
Start Distributed GNN Training
Start Distributed GNN Training
Start Distributed GNN Training
Start Distributed GNN Training
Start Distributed GNN Training
Start Distributed GNN Training
Start Distributed GNN Training
Start Distributed GNN Training
	Rank 0, True Batch Size 256, Iteration 0, Loss 26090806.0000
	Rank 0, True Batch Size 56, Iteration 1, Loss 3643836.0000
…
