…
['./main.py', '0', '1', 'gnerv2', '0', '4']
Hello World From Process 0, the World Size is 4
Downloaded the graph dataset
['./main.py', '0', '1', 'gnerv2', '2', '4']
Hello World From Process 2, the World Size is 4
Downloaded the graph dataset
['./main.py', '0', '1', 'gnerv2', '3', '4']
Hello World From Process 3, the World Size is 4
Downloaded the graph dataset
['./main.py', '0', '1', 'gnerv2', '1', '4']
Hello World From Process 1, the World Size is 4
Downloaded the graph dataset
StochasticGraphSage(
  (convs): ModuleList(
    (0): SAGEConv(
      (feat_drop): Dropout(p=0.0, inplace=False)
      (fc_neigh): Linear(in_features=500, out_features=100, bias=False)
      (fc_self): Linear(in_features=500, out_features=100, bias=True)
    )
    (1-5): 5 x SAGEConv(
      (feat_drop): Dropout(p=0.0, inplace=False)
      (fc_neigh): Linear(in_features=100, out_features=100, bias=False)
      (fc_self): Linear(in_features=100, out_features=100, bias=True)
    )
    (6): SAGEConv(
      (feat_drop): Dropout(p=0.0, inplace=False)
      (fc_neigh): Linear(in_features=100, out_features=7, bias=False)
      (fc_self): Linear(in_features=100, out_features=7, bias=True)
    )
  )
)
StochasticGraphSage(
  (convs): ModuleList(
    (0): SAGEConv(
      (feat_drop): Dropout(p=0.0, inplace=False)
      (fc_neigh): Linear(in_features=500, out_features=100, bias=False)
      (fc_self): Linear(in_features=500, out_features=100, bias=True)
    )
    (1-5): 5 x SAGEConv(
      (feat_drop): Dropout(p=0.0, inplace=False)
      (fc_neigh): Linear(in_features=100, out_features=100, bias=False)
      (fc_self): Linear(in_features=100, out_features=100, bias=True)
    )
    (6): SAGEConv(
      (feat_drop): Dropout(p=0.0, inplace=False)
      (fc_neigh): Linear(in_features=100, out_features=7, bias=False)
      (fc_self): Linear(in_features=100, out_features=7, bias=True)
    )
  )
)
StochasticGraphSage(
  (convs): ModuleList(
    (0): SAGEConv(
      (feat_drop): Dropout(p=0.0, inplace=False)
      (fc_neigh): Linear(in_features=500, out_features=100, bias=False)
      (fc_self): Linear(in_features=500, out_features=100, bias=True)
    )
    (1-5): 5 x SAGEConv(
      (feat_drop): Dropout(p=0.0, inplace=False)
      (fc_neigh): Linear(in_features=100, out_features=100, bias=False)
      (fc_self): Linear(in_features=100, out_features=100, bias=True)
    )
    (6): SAGEConv(
      (feat_drop): Dropout(p=0.0, inplace=False)
      (fc_neigh): Linear(in_features=100, out_features=7, bias=False)
      (fc_self): Linear(in_features=100, out_features=7, bias=True)
    )
  )
)
StochasticGraphSage(
  (convs): ModuleList(
    (0): SAGEConv(
      (feat_drop): Dropout(p=0.0, inplace=False)
      (fc_neigh): Linear(in_features=500, out_features=100, bias=False)
      (fc_self): Linear(in_features=500, out_features=100, bias=True)
    )
    (1-5): 5 x SAGEConv(
      (feat_drop): Dropout(p=0.0, inplace=False)
      (fc_neigh): Linear(in_features=100, out_features=100, bias=False)
      (fc_self): Linear(in_features=100, out_features=100, bias=True)
    )
    (6): SAGEConv(
      (feat_drop): Dropout(p=0.0, inplace=False)
      (fc_neigh): Linear(in_features=100, out_features=7, bias=False)
      (fc_self): Linear(in_features=100, out_features=7, bias=True)
    )
  )
)
Start Distributed GNN Training
Start Distributed GNN Training
Start Distributed GNN Training
Start Distributed GNN Training
	Rank 0, True Batch Size 1, K-hop subgraph size 89250, Iteration 0, Loss 170.8098
	Rank 0, True Batch Size 1, K-hop subgraph size 89250, Iteration 1, Loss 103.5906
	Rank 0, True Batch Size 1, K-hop subgraph size 89250, Iteration 2, Loss 174.7863
…
